WARNING: Logging before InitGoogleLogging() is written to STDERR
I1026 01:51:20.884052  2532 net.cpp:50] Initializing net from parameters: 
name: "CaffeNet"
input: "data"
state {
  phase: TEST
}
input_shape {
  dim: 10
  dim: 3
  dim: 227
  dim: 227
}
layer {
  name: "conv1"
  type: "Convolution"
  bottom: "data"
  top: "conv1"
  convolution_param {
    num_output: 96
    kernel_size: 11
    stride: 4
  }
}
layer {
  name: "relu1"
  type: "ReLU"
  bottom: "conv1"
  top: "conv1"
}
layer {
  name: "pool1"
  type: "Pooling"
  bottom: "conv1"
  top: "pool1"
  pooling_param {
    pool: MAX
    kernel_size: 3
    stride: 2
  }
}
layer {
  name: "norm1"
  type: "LRN"
  bottom: "pool1"
  top: "norm1"
  lrn_param {
    local_size: 5
    alpha: 0.0001
    beta: 0.75
  }
}
layer {
  name: "conv2"
  type: "Convolution"
  bottom: "norm1"
  top: "conv2"
  convolution_param {
    num_output: 256
    pad: 2
    kernel_size: 5
    group: 2
  }
}
layer {
  name: "relu2"
  type: "ReLU"
  bottom: "conv2"
  top: "conv2"
}
layer {
  name: "pool2"
  type: "Pooling"
  bottom: "conv2"
  top: "pool2"
  pooling_param {
    pool: MAX
    kernel_size: 3
    stride: 2
  }
}
layer {
  name: "norm2"
  type: "LRN"
  bottom: "pool2"
  top: "norm2"
  lrn_param {
    local_size: 5
    alpha: 0.0001
    beta: 0.75
  }
}
layer {
  name: "conv3"
  type: "Convolution"
  bottom: "norm2"
  top: "conv3"
  convolution_param {
    num_output: 384
    pad: 1
    kernel_size: 3
  }
}
layer {
  name: "relu3"
  type: "ReLU"
  bottom: "conv3"
  top: "conv3"
}
layer {
  name: "conv4"
  type: "Convolution"
  bottom: "conv3"
  top: "conv4"
  convolution_param {
    num_output: 384
    pad: 1
    kernel_size: 3
    group: 2
  }
}
layer {
  name: "relu4"
  type: "ReLU"
  bottom: "conv4"
  top: "conv4"
}
layer {
  name: "conv5"
  type: "Convolution"
  bottom: "conv4"
  top: "conv5"
  convolution_param {
    num_output: 256
    pad: 1
    kernel_size: 3
    group: 2
  }
}
layer {
  name: "relu5"
  type: "ReLU"
  bottom: "conv5"
  top: "conv5"
}
layer {
  name: "pool5"
  type: "Pooling"
  bottom: "conv5"
  top: "pool5"
  pooling_param {
    pool: MAX
    kernel_size: 3
    stride: 2
  }
}
layer {
  name: "fc6"
  type: "InnerProduct"
  bottom: "pool5"
  top: "fc6"
  inner_product_param {
    num_output: 4096
  }
}
layer {
  name: "relu6"
  type: "ReLU"
  bottom: "fc6"
  top: "fc6"
}
layer {
  name: "drop6"
  type: "Dropout"
  bottom: "fc6"
  top: "fc6"
  dropout_param {
    dropout_ratio: 0.5
  }
}
layer {
  name: "fc7"
  type: "InnerProduct"
  bottom: "fc6"
  top: "fc7"
  inner_product_param {
    num_output: 4096
  }
}
layer {
  name: "relu7"
  type: "ReLU"
  bottom: "fc7"
  top: "fc7"
}
layer {
  name: "drop7"
  type: "Dropout"
  bottom: "fc7"
  top: "fc7"
  dropout_param {
    dropout_ratio: 0.5
  }
}
layer {
  name: "fc8"
  type: "InnerProduct"
  bottom: "fc7"
  top: "fc8"
  inner_product_param {
    num_output: 1000
  }
}
layer {
  name: "prob"
  type: "Softmax"
  bottom: "fc8"
  top: "prob"
}
I1026 01:51:20.884207  2532 net.cpp:435] Input 0 -> data
I1026 01:51:20.884276  2532 layer_factory.hpp:76] Creating layer conv1
I1026 01:51:20.884306  2532 net.cpp:110] Creating Layer conv1
I1026 01:51:20.884317  2532 net.cpp:477] conv1 <- data
I1026 01:51:20.884337  2532 net.cpp:433] conv1 -> conv1
I1026 01:51:20.884452  2532 net.cpp:155] Setting up conv1
I1026 01:51:20.884480  2532 net.cpp:163] Top shape: 10 96 55 55 (2904000)
I1026 01:51:20.884512  2532 layer_factory.hpp:76] Creating layer relu1
I1026 01:51:20.884528  2532 net.cpp:110] Creating Layer relu1
I1026 01:51:20.884539  2532 net.cpp:477] relu1 <- conv1
I1026 01:51:20.884551  2532 net.cpp:419] relu1 -> conv1 (in-place)
I1026 01:51:20.884572  2532 net.cpp:155] Setting up relu1
I1026 01:51:20.884584  2532 net.cpp:163] Top shape: 10 96 55 55 (2904000)
I1026 01:51:20.884594  2532 layer_factory.hpp:76] Creating layer pool1
I1026 01:51:20.884608  2532 net.cpp:110] Creating Layer pool1
I1026 01:51:20.884618  2532 net.cpp:477] pool1 <- conv1
I1026 01:51:20.884630  2532 net.cpp:433] pool1 -> pool1
I1026 01:51:20.884655  2532 net.cpp:155] Setting up pool1
I1026 01:51:20.884680  2532 net.cpp:163] Top shape: 10 96 27 27 (699840)
I1026 01:51:20.884690  2532 layer_factory.hpp:76] Creating layer norm1
I1026 01:51:20.884704  2532 net.cpp:110] Creating Layer norm1
I1026 01:51:20.884714  2532 net.cpp:477] norm1 <- pool1
I1026 01:51:20.884726  2532 net.cpp:433] norm1 -> norm1
I1026 01:51:20.884753  2532 net.cpp:155] Setting up norm1
I1026 01:51:20.884766  2532 net.cpp:163] Top shape: 10 96 27 27 (699840)
I1026 01:51:20.884776  2532 layer_factory.hpp:76] Creating layer conv2
I1026 01:51:20.884789  2532 net.cpp:110] Creating Layer conv2
I1026 01:51:20.884799  2532 net.cpp:477] conv2 <- norm1
I1026 01:51:20.884811  2532 net.cpp:433] conv2 -> conv2
I1026 01:51:20.885823  2532 net.cpp:155] Setting up conv2
I1026 01:51:20.885841  2532 net.cpp:163] Top shape: 10 256 27 27 (1866240)
I1026 01:51:20.885857  2532 layer_factory.hpp:76] Creating layer relu2
I1026 01:51:20.885870  2532 net.cpp:110] Creating Layer relu2
I1026 01:51:20.885880  2532 net.cpp:477] relu2 <- conv2
I1026 01:51:20.885891  2532 net.cpp:419] relu2 -> conv2 (in-place)
I1026 01:51:20.885905  2532 net.cpp:155] Setting up relu2
I1026 01:51:20.885915  2532 net.cpp:163] Top shape: 10 256 27 27 (1866240)
I1026 01:51:20.885926  2532 layer_factory.hpp:76] Creating layer pool2
I1026 01:51:20.885937  2532 net.cpp:110] Creating Layer pool2
I1026 01:51:20.885947  2532 net.cpp:477] pool2 <- conv2
I1026 01:51:20.885958  2532 net.cpp:433] pool2 -> pool2
I1026 01:51:20.885973  2532 net.cpp:155] Setting up pool2
I1026 01:51:20.885985  2532 net.cpp:163] Top shape: 10 256 13 13 (432640)
I1026 01:51:20.885995  2532 layer_factory.hpp:76] Creating layer norm2
I1026 01:51:20.886008  2532 net.cpp:110] Creating Layer norm2
I1026 01:51:20.886018  2532 net.cpp:477] norm2 <- pool2
I1026 01:51:20.886029  2532 net.cpp:433] norm2 -> norm2
I1026 01:51:20.886042  2532 net.cpp:155] Setting up norm2
I1026 01:51:20.886054  2532 net.cpp:163] Top shape: 10 256 13 13 (432640)
I1026 01:51:20.886065  2532 layer_factory.hpp:76] Creating layer conv3
I1026 01:51:20.886077  2532 net.cpp:110] Creating Layer conv3
I1026 01:51:20.886087  2532 net.cpp:477] conv3 <- norm2
I1026 01:51:20.886099  2532 net.cpp:433] conv3 -> conv3
I1026 01:51:20.889821  2532 net.cpp:155] Setting up conv3
I1026 01:51:20.889843  2532 net.cpp:163] Top shape: 10 384 13 13 (648960)
I1026 01:51:20.889860  2532 layer_factory.hpp:76] Creating layer relu3
I1026 01:51:20.889873  2532 net.cpp:110] Creating Layer relu3
I1026 01:51:20.889883  2532 net.cpp:477] relu3 <- conv3
I1026 01:51:20.889894  2532 net.cpp:419] relu3 -> conv3 (in-place)
I1026 01:51:20.889907  2532 net.cpp:155] Setting up relu3
I1026 01:51:20.889919  2532 net.cpp:163] Top shape: 10 384 13 13 (648960)
I1026 01:51:20.889930  2532 layer_factory.hpp:76] Creating layer conv4
I1026 01:51:20.889941  2532 net.cpp:110] Creating Layer conv4
I1026 01:51:20.889951  2532 net.cpp:477] conv4 <- conv3
I1026 01:51:20.889962  2532 net.cpp:433] conv4 -> conv4
I1026 01:51:20.892750  2532 net.cpp:155] Setting up conv4
I1026 01:51:20.892771  2532 net.cpp:163] Top shape: 10 384 13 13 (648960)
I1026 01:51:20.892786  2532 layer_factory.hpp:76] Creating layer relu4
I1026 01:51:20.892798  2532 net.cpp:110] Creating Layer relu4
I1026 01:51:20.892808  2532 net.cpp:477] relu4 <- conv4
I1026 01:51:20.892819  2532 net.cpp:419] relu4 -> conv4 (in-place)
I1026 01:51:20.892832  2532 net.cpp:155] Setting up relu4
I1026 01:51:20.892844  2532 net.cpp:163] Top shape: 10 384 13 13 (648960)
I1026 01:51:20.892854  2532 layer_factory.hpp:76] Creating layer conv5
I1026 01:51:20.892866  2532 net.cpp:110] Creating Layer conv5
I1026 01:51:20.892876  2532 net.cpp:477] conv5 <- conv4
I1026 01:51:20.892889  2532 net.cpp:433] conv5 -> conv5
I1026 01:51:20.894765  2532 net.cpp:155] Setting up conv5
I1026 01:51:20.894785  2532 net.cpp:163] Top shape: 10 256 13 13 (432640)
I1026 01:51:20.894803  2532 layer_factory.hpp:76] Creating layer relu5
I1026 01:51:20.894816  2532 net.cpp:110] Creating Layer relu5
I1026 01:51:20.894826  2532 net.cpp:477] relu5 <- conv5
I1026 01:51:20.894839  2532 net.cpp:419] relu5 -> conv5 (in-place)
I1026 01:51:20.894865  2532 net.cpp:155] Setting up relu5
I1026 01:51:20.894878  2532 net.cpp:163] Top shape: 10 256 13 13 (432640)
I1026 01:51:20.894888  2532 layer_factory.hpp:76] Creating layer pool5
I1026 01:51:20.894901  2532 net.cpp:110] Creating Layer pool5
I1026 01:51:20.894911  2532 net.cpp:477] pool5 <- conv5
I1026 01:51:20.894922  2532 net.cpp:433] pool5 -> pool5
I1026 01:51:20.894938  2532 net.cpp:155] Setting up pool5
I1026 01:51:20.894950  2532 net.cpp:163] Top shape: 10 256 6 6 (92160)
I1026 01:51:20.894960  2532 layer_factory.hpp:76] Creating layer fc6
I1026 01:51:20.894983  2532 net.cpp:110] Creating Layer fc6
I1026 01:51:20.894992  2532 net.cpp:477] fc6 <- pool5
I1026 01:51:20.895005  2532 net.cpp:433] fc6 -> fc6
I1026 01:51:21.054038  2532 net.cpp:155] Setting up fc6
I1026 01:51:21.054113  2532 net.cpp:163] Top shape: 10 4096 (40960)
I1026 01:51:21.054136  2532 layer_factory.hpp:76] Creating layer relu6
I1026 01:51:21.054160  2532 net.cpp:110] Creating Layer relu6
I1026 01:51:21.054172  2532 net.cpp:477] relu6 <- fc6
I1026 01:51:21.054188  2532 net.cpp:419] relu6 -> fc6 (in-place)
I1026 01:51:21.054205  2532 net.cpp:155] Setting up relu6
I1026 01:51:21.054216  2532 net.cpp:163] Top shape: 10 4096 (40960)
I1026 01:51:21.054226  2532 layer_factory.hpp:76] Creating layer drop6
I1026 01:51:21.054263  2532 net.cpp:110] Creating Layer drop6
I1026 01:51:21.054275  2532 net.cpp:477] drop6 <- fc6
I1026 01:51:21.054286  2532 net.cpp:419] drop6 -> fc6 (in-place)
I1026 01:51:21.054304  2532 net.cpp:155] Setting up drop6
I1026 01:51:21.054317  2532 net.cpp:163] Top shape: 10 4096 (40960)
I1026 01:51:21.054328  2532 layer_factory.hpp:76] Creating layer fc7
I1026 01:51:21.054342  2532 net.cpp:110] Creating Layer fc7
I1026 01:51:21.054352  2532 net.cpp:477] fc7 <- fc6
I1026 01:51:21.054365  2532 net.cpp:433] fc7 -> fc7
I1026 01:51:21.124961  2532 net.cpp:155] Setting up fc7
I1026 01:51:21.125036  2532 net.cpp:163] Top shape: 10 4096 (40960)
I1026 01:51:21.125056  2532 layer_factory.hpp:76] Creating layer relu7
I1026 01:51:21.125077  2532 net.cpp:110] Creating Layer relu7
I1026 01:51:21.125088  2532 net.cpp:477] relu7 <- fc7
I1026 01:51:21.125102  2532 net.cpp:419] relu7 -> fc7 (in-place)
I1026 01:51:21.125120  2532 net.cpp:155] Setting up relu7
I1026 01:51:21.125131  2532 net.cpp:163] Top shape: 10 4096 (40960)
I1026 01:51:21.125141  2532 layer_factory.hpp:76] Creating layer drop7
I1026 01:51:21.125156  2532 net.cpp:110] Creating Layer drop7
I1026 01:51:21.125166  2532 net.cpp:477] drop7 <- fc7
I1026 01:51:21.125180  2532 net.cpp:419] drop7 -> fc7 (in-place)
I1026 01:51:21.125193  2532 net.cpp:155] Setting up drop7
I1026 01:51:21.125205  2532 net.cpp:163] Top shape: 10 4096 (40960)
I1026 01:51:21.125216  2532 layer_factory.hpp:76] Creating layer fc8
I1026 01:51:21.125231  2532 net.cpp:110] Creating Layer fc8
I1026 01:51:21.125241  2532 net.cpp:477] fc8 <- fc7
I1026 01:51:21.125252  2532 net.cpp:433] fc8 -> fc8
I1026 01:51:21.142278  2532 net.cpp:155] Setting up fc8
I1026 01:51:21.142320  2532 net.cpp:163] Top shape: 10 1000 (10000)
I1026 01:51:21.142338  2532 layer_factory.hpp:76] Creating layer prob
I1026 01:51:21.142354  2532 net.cpp:110] Creating Layer prob
I1026 01:51:21.142365  2532 net.cpp:477] prob <- fc8
I1026 01:51:21.142380  2532 net.cpp:433] prob -> prob
I1026 01:51:21.142415  2532 net.cpp:155] Setting up prob
I1026 01:51:21.142427  2532 net.cpp:163] Top shape: 10 1000 (10000)
I1026 01:51:21.142437  2532 net.cpp:240] prob does not need backward computation.
I1026 01:51:21.142448  2532 net.cpp:240] fc8 does not need backward computation.
I1026 01:51:21.142458  2532 net.cpp:240] drop7 does not need backward computation.
I1026 01:51:21.142468  2532 net.cpp:240] relu7 does not need backward computation.
I1026 01:51:21.142478  2532 net.cpp:240] fc7 does not need backward computation.
…
